…
Number of test batches: 84

Validation set values size (X): 2700 x 3
Validation set target vector size (Y): 2700 x 1
Sum of Validation set values (X): 13823886.65
Sum of Validation set target (Y): 11963


Number of test batches: 84

Test set values size (X): 2700 x 3
Test set target vector size (Y): 2700 x 1
Sum of test set values (X): 13779011.04
Sum of test set target (Y): 11955
_________________________________________________________________
Layer (type)                 Output Shape              Param #   
=================================================================
conv2d_1 (Conv2D)            (None, 48, 64, 64)        1344      
_________________________________________________________________
batch_normalization_1 (Batch (None, 48, 64, 64)        256       
_________________________________________________________________
activation_1 (Activation)    (None, 48, 64, 64)        0         
_________________________________________________________________
conv2d_2 (Conv2D)            (None, 48, 64, 64)        20784     
_________________________________________________________________
batch_normalization_2 (Batch (None, 48, 64, 64)        256       
_________________________________________________________________
activation_2 (Activation)    (None, 48, 64, 64)        0         
_________________________________________________________________
max_pooling2d_1 (MaxPooling2 (None, 48, 32, 32)        0         
_________________________________________________________________
dropout_1 (Dropout)          (None, 48, 32, 32)        0         
_________________________________________________________________
conv2d_3 (Conv2D)            (None, 96, 32, 32)        41568     
_________________________________________________________________
batch_normalization_3 (Batch (None, 96, 32, 32)        128       
_________________________________________________________________
activation_3 (Activation)    (None, 96, 32, 32)        0         
_________________________________________________________________
conv2d_4 (Conv2D)            (None, 96, 32, 32)        83040     
_________________________________________________________________
batch_normalization_4 (Batch (None, 96, 32, 32)        128       
_________________________________________________________________
activation_4 (Activation)    (None, 96, 32, 32)        0         
_________________________________________________________________
max_pooling2d_2 (MaxPooling2 (None, 96, 16, 16)        0         
_________________________________________________________________
dropout_2 (Dropout)          (None, 96, 16, 16)        0         
_________________________________________________________________
flatten_1 (Flatten)          (None, 24576)             0         
_________________________________________________________________
dense_1 (Dense)              (None, 512)               12583424  
_________________________________________________________________
batch_normalization_5 (Batch (None, 512)               2048      
_________________________________________________________________
activation_5 (Activation)    (None, 512)               0         
_________________________________________________________________
dropout_3 (Dropout)          (None, 512)               0         
_________________________________________________________________
dense_2 (Dense)              (None, 10)                5130      
_________________________________________________________________
batch_normalization_6 (Batch (None, 10)                40        
_________________________________________________________________
activation_6 (Activation)    (None, 10)                0         
=================================================================
Total params: 12,738,146
Trainable params: 12,736,718
Non-trainable params: 1,428
_________________________________________________________________

Training of the neural network N.1 ...


Real Time Data Augmentation ON

zoom_range=0.2
horizontal_flip=True
vertical_flip=True
rotation_range=30

Loading time data augmentation: 0.00 minutes
…
